…
        See `nditer` parameters of the same name

    Returns
    -------
    iters : tuple of nditer
        An nditer for each item in `axes`, outermost first

    See Also
    --------
    nditer

    Examples
    --------

    Basic usage. Note how y is the \"flattened\" version of
    [a[:, 0, :], a[:, 1, 0], a[:, 2, :]] since we specified
    the first iter's axes as [1]

    >>> a = np.arange(12).reshape(2, 3, 2)
    >>> i, j = np.nested_iters(a, [[1], [0, 2]], flags=[\"multi_index\"])
    >>> for x in i:
    ...      print(i.multi_index)
    ...      for y in j:
    ...          print('', j.multi_index, y)
    (0,)
     (0, 0) 0
     (0, 1) 1
     (1, 0) 6
     (1, 1) 7
    (1,)
     (0, 0) 2
     (0, 1) 3
     (1, 0) 8
     (1, 1) 9
    (2,)
     (0, 0) 4
     (0, 1) 5
     (1, 0) 10
     (1, 1) 11" :arglists '[[self & [args {:as kwargs}]]])

(def ^{:doc "This module provides access to the mathematical functions
defined by the C standard."} math (as-jvm/generic-pyobject (py-global-delay (py/get-attr @src-obj* "math"))))

(def ^{:doc "
=============
Masked Arrays
=============

Arrays sometimes contain invalid or missing data.  When doing operations
on such arrays, we wish to suppress invalid values, which is the purpose masked
…
